…
        "        return torch.sigmoid(x)"
      ]
    },
    {
      "cell_type": "code",
      "execution_count": null,
      "metadata": {
        "id": "A0v3H3cpDGO1",
        "colab": {
          "base_uri": "https://localhost:8080/"
        },
        "outputId": "9a6593e1-bbb1-4581-98af-e75c42b7dec9"
      },
      "outputs": [
        {
          "output_type": "execute_result",
          "data": {
            "text/plain": [
              "UNET(\n",
              "  (inc): inconv(\n",
              "    (conv): double_conv(\n",
              "      (conv): Sequential(\n",
              "        (0): Conv2d(1, 64, kernel_size=(3, 3), stride=(1, 1), padding=(1, 1))\n",
              "        (1): BatchNorm2d(64, eps=1e-05, momentum=0.1, affine=True, track_running_stats=True)\n",
              "        (2): ReLU(inplace=True)\n",
              "        (3): Conv2d(64, 64, kernel_size=(3, 3), stride=(1, 1), padding=(1, 1))\n",
              "        (4): BatchNorm2d(64, eps=1e-05, momentum=0.1, affine=True, track_running_stats=True)\n",
              "        (5): ReLU(inplace=True)\n",
              "      )\n",
              "    )\n",
              "  )\n",
              "  (down1): down(\n",
              "    (mpconv): Sequential(\n",
              "      (0): MaxPool2d(kernel_size=2, stride=2, padding=0, dilation=1, ceil_mode=False)\n",
              "      (1): double_conv(\n",
              "        (conv): Sequential(\n",
              "          (0): Conv2d(64, 128, kernel_size=(3, 3), stride=(1, 1), padding=(1, 1))\n",
              "          (1): BatchNorm2d(128, eps=1e-05, momentum=0.1, affine=True, track_running_stats=True)\n",
              "          (2): ReLU(inplace=True)\n",
              "          (3): Conv2d(128, 128, kernel_size=(3, 3), stride=(1, 1), padding=(1, 1))\n",
              "          (4): BatchNorm2d(128, eps=1e-05, momentum=0.1, affine=True, track_running_stats=True)\n",
              "          (5): ReLU(inplace=True)\n",
              "        )\n",
              "      )\n",
              "    )\n",
              "  )\n",
              "  (down2): down(\n",
              "    (mpconv): Sequential(\n",
              "      (0): MaxPool2d(kernel_size=2, stride=2, padding=0, dilation=1, ceil_mode=False)\n",
              "      (1): double_conv(\n",
              "        (conv): Sequential(\n",
              "          (0): Conv2d(128, 256, kernel_size=(3, 3), stride=(1, 1), padding=(1, 1))\n",
              "          (1): BatchNorm2d(256, eps=1e-05, momentum=0.1, affine=True, track_running_stats=True)\n",
              "          (2): ReLU(inplace=True)\n",
              "          (3): Conv2d(256, 256, kernel_size=(3, 3), stride=(1, 1), padding=(1, 1))\n",
              "          (4): BatchNorm2d(256, eps=1e-05, momentum=0.1, affine=True, track_running_stats=True)\n",
              "          (5): ReLU(inplace=True)\n",
              "        )\n",
              "      )\n",
              "    )\n",
              "  )\n",
              "  (down3): down(\n",
              "    (mpconv): Sequential(\n",
              "      (0): MaxPool2d(kernel_size=2, stride=2, padding=0, dilation=1, ceil_mode=False)\n",
              "      (1): double_conv(\n",
              "        (conv): Sequential(\n",
              "          (0): Conv2d(256, 512, kernel_size=(3, 3), stride=(1, 1), padding=(1, 1))\n",
              "          (1): BatchNorm2d(512, eps=1e-05, momentum=0.1, affine=True, track_running_stats=True)\n",
              "          (2): ReLU(inplace=True)\n",
              "          (3): Conv2d(512, 512, kernel_size=(3, 3), stride=(1, 1), padding=(1, 1))\n",
              "          (4): BatchNorm2d(512, eps=1e-05, momentum=0.1, affine=True, track_running_stats=True)\n",
              "          (5): ReLU(inplace=True)\n",
              "        )\n",
              "      )\n",
              "    )\n",
              "  )\n",
              "  (down4): down(\n",
              "    (mpconv): Sequential(\n",
              "      (0): MaxPool2d(kernel_size=2, stride=2, padding=0, dilation=1, ceil_mode=False)\n",
              "      (1): double_conv(\n",
              "        (conv): Sequential(\n",
              "          (0): Conv2d(512, 512, kernel_size=(3, 3), stride=(1, 1), padding=(1, 1))\n",
              "          (1): BatchNorm2d(512, eps=1e-05, momentum=0.1, affine=True, track_running_stats=True)\n",
              "          (2): ReLU(inplace=True)\n",
              "          (3): Conv2d(512, 512, kernel_size=(3, 3), stride=(1, 1), padding=(1, 1))\n",
              "          (4): BatchNorm2d(512, eps=1e-05, momentum=0.1, affine=True, track_running_stats=True)\n",
              "          (5): ReLU(inplace=True)\n",
              "        )\n",
              "      )\n",
              "    )\n",
              "  )\n",
              "  (up1): up(\n",
              "    (up): Upsample(scale_factor=2.0, mode='bilinear')\n",
              "    (conv): double_conv(\n",
              "      (conv): Sequential(\n",
              "        (0): Conv2d(1024, 256, kernel_size=(3, 3), stride=(1, 1), padding=(1, 1))\n",
              "        (1): BatchNorm2d(256, eps=1e-05, momentum=0.1, affine=True, track_running_stats=True)\n",
              "        (2): ReLU(inplace=True)\n",
              "        (3): Conv2d(256, 256, kernel_size=(3, 3), stride=(1, 1), padding=(1, 1))\n",
              "        (4): BatchNorm2d(256, eps=1e-05, momentum=0.1, affine=True, track_running_stats=True)\n",
              "        (5): ReLU(inplace=True)\n",
              "      )\n",
              "    )\n",
              "  )\n",
              "  (up2): up(\n",
              "    (up): Upsample(scale_factor=2.0, mode='bilinear')\n",
              "    (conv): double_conv(\n",
              "      (conv): Sequential(\n",
              "        (0): Conv2d(512, 128, kernel_size=(3, 3), stride=(1, 1), padding=(1, 1))\n",
              "        (1): BatchNorm2d(128, eps=1e-05, momentum=0.1, affine=True, track_running_stats=True)\n",
              "        (2): ReLU(inplace=True)\n",
              "        (3): Conv2d(128, 128, kernel_size=(3, 3), stride=(1, 1), padding=(1, 1))\n",
              "        (4): BatchNorm2d(128, eps=1e-05, momentum=0.1, affine=True, track_running_stats=True)\n",
              "        (5): ReLU(inplace=True)\n",
              "      )\n",
              "    )\n",
              "  )\n",
              "  (up3): up(\n",
              "    (up): Upsample(scale_factor=2.0, mode='bilinear')\n",
              "    (conv): double_conv(\n",
              "      (conv): Sequential(\n",
              "        (0): Conv2d(256, 64, kernel_size=(3, 3), stride=(1, 1), padding=(1, 1))\n",
              "        (1): BatchNorm2d(64, eps=1e-05, momentum=0.1, affine=True, track_running_stats=True)\n",
              "        (2): ReLU(inplace=True)\n",
              "        (3): Conv2d(64, 64, kernel_size=(3, 3), stride=(1, 1), padding=(1, 1))\n",
              "        (4): BatchNorm2d(64, eps=1e-05, momentum=0.1, affine=True, track_running_stats=True)\n",
              "        (5): ReLU(inplace=True)\n",
              "      )\n",
              "    )\n",
              "  )\n",
              "  (up4): up(\n",
              "    (up): Upsample(scale_factor=2.0, mode='bilinear')\n",
              "    (conv): double_conv(\n",
              "      (conv): Sequential(\n",
              "        (0): Conv2d(128, 64, kernel_size=(3, 3), stride=(1, 1), padding=(1, 1))\n",
              "        (1): BatchNorm2d(64, eps=1e-05, momentum=0.1, affine=True, track_running_stats=True)\n",
              "        (2): ReLU(inplace=True)\n",
              "        (3): Conv2d(64, 64, kernel_size=(3, 3), stride=(1, 1), padding=(1, 1))\n",
              "        (4): BatchNorm2d(64, eps=1e-05, momentum=0.1, affine=True, track_running_stats=True)\n",
              "        (5): ReLU(inplace=True)\n",
              "      )\n",
              "    )\n",
              "  )\n",
              "  (outc): outconv(\n",
              "    (conv): Conv2d(64, 1, kernel_size=(1, 1), stride=(1, 1))\n",
              "  )\n",
              ")"
            ]
          },
          "metadata": {},
          "execution_count": 32
        }
      ],
      "source": [
        "model = UNET(1,1)\n",
        "model.to(device)"
      ]
    },
    {
      "cell_type": "markdown",
      "metadata": {
        "id": "7QH4mb75HxJ1"
      },
      "source": [
        "**In the above cell using \"model\" name as to represent U-Net model..**"
…
